model.pth (torch, 773960 bytes, 13 tensors)

weight_ih_l0 f4 [284, 71]
-0.0021712098 -0.00077856367 0.0003027994 -0.020492354 -0.0012614845 -0.001914595 -0.008087674 0.008052135
-0.00020181375 -0.007182366 -0.000892236 -0.0040111057 0.0014233288 -0.003154065 0.0026646145 -0.00018730578
-0.00011911275 1.5605416e-05 0.00016579326 -0.010788397 -0.00066920137 -0.0039926437 -0.00016575525 -0.010050924
0.00072773756 0.0012651758 -0.016778229 -0.0008881437 -1.3932757e-05 0.0051278844 0.00026073548 -0.000692209
0.0003135089 -0.011811948 0.0037423372 -0.022578605 -0.0043731374 -0.00065902155 -0.018095925 0.015481795
-0.0068350662 0.022008322 -0.00037345669 0.00034998206 -0.00019803287 -0.0027266091 0.00025626668 0.0028462978
-0.00056248176 -0.00071921054 0.0006577826 -0.010898419 0.0038705524 0.015239695 6.839531e-05 -0.01282605
-0.017179485 -0.00014158052 -0.011550206 -0.0070736324 -7.558733e-05 -0.00061000354 -0.00040380916 0.016017208
-0.00012854107 0.003137693 0.00012310522 0.0006091521 0.004769425 0.0058252886 1.9581166e-05 -0.0007153984
-0.0049168454 -0.020764008 -0.0011341879 -0.011957573 -0.0010148061 -0.0009422615 -0.0008414292 0.000330734
-0.00019753874 -0.0003521017 0.0003946508 -0.00020281794 -0.010551927 0.0010179016 0.014255601 0.0018576178
-0.010325461 -0.0019058839 -2.899043e-05 -0.00027143868 -0.008368217 -6.87583e-05 -0.0029344633 -6.38304e-05
-0.005928488 -0.019861767 -0.00021150727 0.014992083 2.1486507e-05 0.00017876524 -0.00043099065 -0.00010231291
0.0026746702 -0.0003156307 -0.00020171035 0.00039827338 -0.000951572 0.0001072376 0.015498689 0.00080030254
0.00094965415 0.004643898 -0.0001592814 5.866881e-05 -0.018991586 0.00044020292 0.015980328 -0.0019310751
-0.00020739295 -0.0014316511 5.033522e-05 -0.00214505 0.0049069333 -0.000439391 -5.5638113e-05 -0.00010545002
0.004471643 -0.0037611246 5.789952e-05 0.007258662 -0.00014432237 -0.0002695432 -0.010635171 -2.2166914e-05
-0.00031361112 0.0009261814 0.001494817 0.0006726543 0.003831686 -1.3338796e-05 0.003406028 -5.6684832e-05
0.00019708123 -2.716716e-05 -0.0004480437 0.0040106075 0.008097427 0.004683068 -0.00050117116 -0.00065425347
0.00030237035 0.02171195 4.682791e-05 -0.00021192327 9.150944e-05 -8.766017e-05 -0.019707186 0.017182581
-0.00048323013 0.014114977 -0.00015926138 0.000526104 0.0141389165 0.0048781685 0.00013803029 0.0044351243
-0.000368429 0.0154306805 0.00028572895 0.0003638927 0.020117464 0.00011148533 -0.010386079 -3.6037258e-05
-0.0056428527 0.0032602907 4.0101524e-05 -0.0073053567 0.0050300374 0.0154578965 0.0012504258 0.0025788166
-0.011642041 -0.0069635073 6.2609404e-05 0.00018744105 0.0017355932 0.014946771 0.00018294119 -0.00010480669
0.00014205526 -0.021481987 -0.0001435755 0.009713234 0.014961873 -0.00017661578 -0.0001580805 -3.4654822e-05
1.5542719e-05 0.012113029 -0.014299076 0.00010436665 -0.0008862849 -0.007650999 0.0046430994 -0.00011689192
0.0014549652 -0.0037478292 0.0001266046 0.00028759876 0.008625356 0.015755922 -0.0019598645 0.008713161
-0.0016866477 0.01732719 -0.0016689945 0.017468583 -0.0014049783 0.0031259248 0.015352618 -0.0029910167
-0.00022936382 -0.0023482195 -0.017354213 0.01691124 0.0011750043 -0.002778164 -0.0010036184 0.01172449
-0.00040634687 -0.0005970652 0.0003719976 -0.00053761504 -0.00035522183 -0.0028170147 -0.0027241493 0.019498834
-0.0018774446 0.021223566 0.0001872075 0.019915033 -0.0037562903 -0.00019446721 -7.1563e-05 0.006666161
0.010111114 -0.00011640022 0.0075467154 -0.008013973 -6.9682865e-05 0.0014597216 -0.030306825 -0.0018062065
00000000: db4a 0ebb 8618 4cba 0cc1 9e39 95df a7bc
00000010: 6558 a5ba 26f3 faba 2a82 04bc 1aed 033c
00000020: f79d 53b9 0e5a ebbb f2e4 69ba 986f 83bb
00000030: fd8e ba3a 6eb4 4ebb d0a0 2e3b 8367 44b9
00000040: 2ccc f9b8 60e8 8237 cad8 2d39 d1c1 30bc
00000050: 586d 2fba b9d4 82bb 96ce 2db9 a1ac 24bc
00000060: a4c5 3e3a 41d4 a53a 7f72 89bc 51d2 68ba
00000070: bcc0 69b7 d007 a83b 53b3 8839 5c75 35ba
00000080: 745e a439 e786 41bc 0042 753b c4f6 b8bc
00000090: 894c 8fbb 30c2 2cba e83d 94bc 5ba7 7d3c
000000a0: b1f8 dfbb cc4a b43c 82cc c3b9 cc7d b739
000000b0: 0ba7 4fb9 e9b0 32bb 885b 8639 f488 3a3b
000000c0: 8373 13ba 6789 3cba 0b6f 2c3a 488f 32bc
000000d0: 18a9 7d3b eaaf 793c 746f 8f38 5a24 52bc
000000e0: febb 8cbc 3b75 14b9 133d 3dbc eec9 e7bb
000000f0: a484 9eb8 a5e8 1fba 59b6 d3b9 8536 833c
00000100: fbc8 06b9 c1a1 4d3b ce15 0139 81af 1f3a
00000110: d648 9c3b 10e2 be3b 3c42 a437 9389 3bba
00000120: 7d1d a1bb 4819 aabc 08a9 94ba b2e9 43bc
00000130: 3e03 85ba 1902 77ba 5c93 5cba 5e66 ad39
00000140: 6722 4fb9 4a9a b8b9 22e9 ce39 87ab 54b9
00000150: fde1 2cbc 1c6b 853a 5390 693c 4f7b f33a
00000160: 1f2c 29bc dace f9ba 7930 f3b7 e24f 8eb9
00000170: d91a 09bc 5532 90b8 2050 40bb afdc 85b8
00000180: c343 c2bb 25b5 a2bc 0dc8 5db9 5ba1 753c
00000190: ec3d b437 ee72 3b39 96f6 e1b9 d390 d6b8
000001a0: 8549 2f3b 3c7b a5b9 3682 53b9 59cf d039
000001b0: ea72 79ba c0e4 e038 37ee 7d3c 65cb 513a
000001c0: 36f2 783a d72b 983b c604 27b9 2813 7638
000001d0: 3e94 9bbc 09cb e639 2de9 823c 211c fdba
000001e0: 9f77 59b9 3da6 bbba 081f 5338 f893 0cbb
000001f0: 57ca a03b 105e e6b9 f85c 69b8 0c25 ddb8
00000200: dc86 923b 337d 76bb 23d9 7238 12da ed3b
00000210: 3e55 17b9 7a51 8db9 243f 2ebc 16f3 b9b7
00000220: 2c6c a4b9 fbca 723a bced c33a 1155 303a
00000230: 061d 7b3b b1c9 5fb7 ab37 5f3b e0c0 6db8
00000240: 97a7 4e39 08e5 e3b7 68e7 eab9 6a6b 833b
00000250: 12ab 043c 6c74 993b 0761 03ba 3582 2bba
00000260: 7687 9e39 42dd b13c 1669 4438 b837 5eb9
00000270: c2e8 bf38 32d6 b7b8 f770 a1bc 7cc2 8c3c
00000280: 0d5a fdb9 8142 673c 67ff 26b9 3eea 093a
00000290: eaa6 673c 0bd9 9f3b 39bc 1039 8554 913b
000002a0: b429 c1b9 f7d0 7c3c e4cd 9539 dac8 be39
000002b0: 61cd a43c 3bcd e938 5f2a 2abc b626 17b8
000002c0: aee7 b8bb 9aaa 553b af32 2838 c661 efbb
000002d0: 03d3 a43b 1e43 7d3c 54e5 a33a 5d01 293b
000002e0: 42be 3ebc 222e e4bb 2b4d 8338 d38b 4439
000002f0: d87c e33a 4de3 743c e7d3 3f39 aacb dbb8
00000300: abf4 1439 fefa afbc c18c 16b9 4224 1f3c
00000310: a522 753c f031 39b9 69c2 25b9 555a 11b8
00000320: bc61 8237 ba75 463c ac46 6abc 6bdf da38
00000330: 9355 68ba 3bb5 fabb 2425 983b df23 f5b8
00000340: 88b4 be3a 249e 75bb 2ac1 0439 dac8 9639
00000350: 5d51 0d3c 9012 813c 1271 00bb a5c1 0e3c
00000360: 8112 ddba c0f1 8d3c 2ac2 daba 461a 8f3c
00000370: 4027 b8ba 51dc 4c3b 8c89 7b3c ef04 44bb
00000380: 6281 70b9 96e4 19bb 6c2a 8ebc 7189 8a3c
00000390: 9a02 9a3a dc11 36bb d88b 83ba 1318 403c
000003a0: f40a d5b9 5e84 1cba ac08 c339 bcee 0cba
000003b0: 113d bab9 aa9d 38bb a487 32bb 05bc 9f3c
000003c0: 9614 f6ba 0bdd ad3c 214d 4439 da24 a33c
000003d0: 182c 76bb e5e9 4bb9 1814 96b8 d06f da3b
000003e0: 16a9 253c e41b f4b8 704a f73b 0a4d 03bc
000003f0: b422 92b8 2154 bf3a 0546 f8bc 3cbe ecba

weight_hh_l0 f4 [284, 71]
0.0063150907 0.0058274297 0.0151489675 -0.00044903642 0.006692254 0.000154609 -2.501645e-05 0.00013039261
-0.0013097709 -0.0001682042 0.00015799086 -0.015355642 -0.00025406523 8.1149374e-05 -0.0001724158 0.00046930613
-0.011842985 0.00011817475 0.0034375773 -0.0070859427 -0.009064482 -0.0008816869 7.8678306e-05 -0.0020349107
-4.875502e-05 -4.961499e-05 1.4820194e-05 -0.00025816294 0.008755759 -0.01167795 0.007965321 -0.00048513984
-0.011769339 -6.2601655e-05 -5.4842563e-05 0.00024123103 -4.547295e-05 -0.00046553358 0.003073935 -0.00015873871
-0.00991039 1.646555e-05 3.7583162e-05 6.4975175e-05 -0.0001841153 -0.00033445077 0.009992386 -0.0008018407
0.009683321 9.072831e-05 -0.013095896 0.00018978724 -0.0003541197 0.008176639 -0.00037563712 0.020012751
-7.366365e-05 -6.8869966e-05 4.8313643e-05 -0.021716526 0.00030468707 -0.00020300203 -0.00036113907 -0.019508753
-0.010633584 0.0070112417 -0.000338995 8.119177e-05 0.0024738486 -0.00020661482 -0.009179639 -8.352188e-05
-0.011505018 -9.019874e-06 -0.00015819946 0.008732936 -0.000501522 -0.017915983 -0.0021541945 0.0071745496
-4.5625602e-05 0.00012873964 0.0014859657 0.014919562 0.0006300347 8.054163e-05 4.0313913e-05 -3.6576035e-05
-0.009025073 2.647573e-05 0.010225267 0.0014685338 -0.00038971647 -0.0028415115 0.010455514 0.003801977
0.0016413718 3.8513153e-06 -2.6861648e-05 8.308248e-05 -0.00025427956 -0.010494418 -0.0041203876 -0.0006844469
0.0026955034 0.018438129 0.00010223489 -0.0056890496 -0.0017409271 -0.0045029707 -2.2349403e-05 -0.001173814
3.4231263e-05 -0.001017448 -0.011823515 0.006519638 -3.546882e-05 0.00014418892 -0.00020683397 -4.471479e-05
-2.7959606e-05 -3.7428845e-06 4.076894e-05 -0.00012899895 -0.0029355732 -4.275629e-05 -0.02037388 0.0003734962
-0.001408771 -0.004959373 6.113138e-05 2.4661911e-05 -0.012276725 -0.00012839 -0.01479427 0.0045913644
-0.0032407087 0.0026131463 2.606819e-05 2.72496e-05 0.0031756011 -0.00010123606 7.255756e-06 -7.254637e-05
-0.0049587064 0.0045318627 -0.005968515 -9.397681e-06 0.0016028578 -0.010303081 -2.5112377e-07 -0.019872386
-0.0050576134 0.010672793 1.4641022e-05 -0.0003901404 -0.00086737494 -0.003012813 -0.020334413 -2.939054e-05
-3.395005e-05 -0.005149439 -0.00024651055 -7.30422e-06 -1.3474302e-05 0.003963552 -0.0005628913 0.0049017854
-0.015269404 -7.24262e-06 0.002454861 -0.0014277302 1.0103457e-05 0.020140503 -4.722188e-05 -7.0288756e-06
-0.01656649 0.0012155453 -3.6533223e-05 6.0589646e-06 -0.007488383 -3.1169795e-05 0.00025971892 -0.006203271
-0.0026118204 -2.514985e-06 1.4402943e-05 -0.0013651658 -4.0729978e-05 -0.00016009627 4.5388137e-05 0.00043697952
-0.005773825 -0.013739867 0.0036714086 -1.4032941e-05 -0.013723247 -0.019202799 2.2213142e-05 2.103366e-06
-0.0015536107 -1.6774435e-05 1.3650088e-05 -0.0004846698 -0.020145422 1.7279232e-06 -0.00093123666 -0.01620444
-4.1566116e-05 -1.4044074e-05 0.011668405 0.0031940478 -4.9535913e-05 -0.005636573 -0.020117918 -0.022149146
-0.0010857197 -0.00032113792 -0.020588776 0.0029290197 0.005220091 -0.004781215 -0.00041752687 -0.011478146
-0.012636788 -0.004420232 0.00011963633 0.0008236577 0.00036583506 0.007660812 -0.01570268 0.00621644
-0.0009083934 0.00010226292 0.00029091234 8.678454e-05 -0.002703718 -0.00015234108 -0.0002689266 2.767931e-05
-0.0037351171 -0.009078667 6.866856e-05 0.014136229 -0.00026300154 -0.0006882865 -0.00012978209 -0.00014583142
0.021124493 0.007720305 -0.018331623 -0.008238123 -0.00028794887 -0.00246921 -0.0024360232 7.5933756e-05
00000000: d2ee ce3b 06f4 be3b 6033 783c a66c ebb9
00000010: b24a db3b 8a1e 2239 6bda d1b7 00ba 0839
00000020: 9eac abba f95f 30b9 59aa 2539 3b96 7bbc
00000030: 0f34 85b9 bd2e aa38 84ca 34b9 340d f639
00000040: 1409 42bc 96d4 f738 fa48 613b 3231 e8bb
00000050: 3183 14bc 0221 67ba 1800 a538 235c 05bb
00000060: 4e7e 4cb8 b119 50b8 40a4 7837 0b5a 87b9
00000070: 5174 0f3c df54 3fbc fa80 023c 5e5a feb9
00000080: 30d4 40bc 0249 83b8 c106 66b8 f6f2 7c39
00000090: 35ba 3eb8 dc12 f4b9 1274 493b 1973 26b9
000000a0: 305f 22bc 801f 8a37 9da2 1d38 4843 8838
000000b0: 130f 41b9 3959 afb9 1bb7 233c 9e32 52ba
000000c0: cba6 1e3c 6445 be38 2b90 56bc a001 4739
000000d0: 24a9 b9b9 4ff7 053c 29f1 c4b9 c8f1 a33c
000000e0: df7b 9ab8 486e 90b8 61a4 4a38 dbe6 b1bc
000000f0: 68be 9f39 f1dc 54b9 4457 bdb9 d2d0 9fbc
00000100: 7c38 2ebc 8fbe e53b 24bb b1b9 8045 aa38
00000110: 4b20 223b bea6 58b9 3266 16bc 7828 afb8
00000120: 8b7f 3cbc 1054 17b7 58e2 25b9 9714 0f3c
00000130: 9278 03ba 8ac4 92bc 632d 0dbb 7c18 eb3b
00000140: 1e5e 3fb8 49fe 0639 bcc4 c23a 2e71 743c
00000150: ea28 253a 75e8 a838 bc16 2938 3869 19b8
00000160: e6dd 13bc 3218 de37 e187 273c d17b c03a
00000170: dc52 ccb9 a738 3abb 9b4d 2b3c 972a 793b
00000180: 4c23 d73a 8c3a 8136 f354 e1b7 913c ae38
00000190: d350 85b9 c8f0 2bbc 5104 87bb 746c 33ba
000001a0: 0ba7 303b 8f0b 973c f066 d638 356b babb
000001b0: d22f e4ba a88d 93bb fa7a bbb7 a9da 99ba
000001c0: 8a93 0f38 e45b 85ba 6bb7 41bc b0a2 d53b
000001d0: 5bc4 14b8 6b31 1739 92e1 58b9 248c 3bb8
000001e0: cc8a eab7 442e 7bb6 51ff 2a38 e443 07b9
000001f0: bf62 40bb 3855 33b8 20e7 a6bc d0d1 c339
00000200: 83a6 b8ba 3c82 a2bb a933 8038 0de1 ce37
00000210: 5124 49bc 6ea0 06b9 aa63 72bc 2873 963b
00000220: 1262 54bb 5241 2b3b 03ad da37 1296 e437
00000230: bf1d 503b b24e d4b8 7876 f336 0924 98b8
00000240: a57c a2bb 0580 943b 8893 c3bb bcaa 1db7
00000250: fc16 d23a 41ce 28bc 30d2 86b4 6acb a2bc
00000260: 56ba a5bb f0dc 2e3c b6a2 7537 c28b ccb9
00000270: 8c60 63ba 9d72 45bb 5b94 a6bc b48b f6b7
00000280: 9765 0eb8 a0bc a8bb 163e 81b9 c616 f5b6
00000290: b00f 62b7 afe0 813b ff8e 13ba 289f a03b
000002a0: 862c 7abc a205 f3b6 bce1 203b ad22 bbba
000002b0: 0482 2937 b2fd a43c 1c10 46b8 95d9 ebb6
000002c0: 73b6 87bc ef52 9f3a 403b 19b8 1c4e cb36
000002d0: 1c61 f5bb 50bc 02b8 e22a 8839 cf44 cbbb
000002e0: 132b 2bbb 1dc7 28b6 2ba4 7137 5def b2ba
000002f0: 7bd5 2ab8 84df 27b9 245f 3e38 661a e539
00000300: 5b32 bdbb 2e1d 61bc 049c 703b 066f 6bb7
00000310: 78d7 60bc 304f 9dbc 5c56 ba37 8d27 0d36
00000320: 86a2 cbba d3b6 8cb7 ae02 6537 481b feb9
00000330: 0308 a5bc fdea e735 3c1e 74ba 2cbf 84bc
00000340: 4757 2eb8 d79e 6bb7 d62c 3f3c 3b53 513b
00000350: c8c4 4fb8 00b3 b8bb 55ce a4bc 2072 b5bc
00000360: b54e 8eba 675e a8b9 cba9 a8bc ccf4 3f3b
00000370: 4c0d ab3b bdab 9cbb 82e7 dab9 d50e 3cbc
00000380: 880a 4fbc 98d7 90bb 44e5 fa38 bcea 573a
00000390: 8dcd bf39 8d07 fb3b e8a2 80bc 47b3 cb3b
000003a0: 4021 6eba fd75 d638 9885 9839 1800 b638
000003b0: dc30 31bb bfbd 1fb9 b8fe 8cb9 de30 e837
000003c0: dec8 74bb b0be 14bc 2702 9038 a49b 673c
000003d0: 78e3 89b9 206e 34ba 1d16 08b9 53ea 18b9
000003e0: 460d ad3c 9dfa fc3b 332c 96bc 31f9 06bc
000003f0: d8f7 96b9 78d2 21bb b0a5 1fbb a03e 9f38

bias_ih_l0 f4 [284]
0.008146212 0.0013317923 0.00042972327 0.0072884834 0.00093797094 0.0018112935 0.0062224874 0.0071199615
-0.005643952 -0.015147523 -0.0055218004 0.00036182575 0.0019567192 0.00036006645 0.01587637 -0.013495489
0.0012981242 0.0009223661 0.02634313 0.0074132197 -0.00076389255 0.015681116 0.0010944153 -0.016211541
0.00077585794 0.001036852 0.0012113957 -3.6860427e-05 0.0036873636 0.018560607 0.00011380069 0.0057923105
0.0024016583 0.0003391198 0.00062511227 0.0040022098 -0.017760571 0.004736977 0.021160655 0.008163713
0.0032488904 0.00016600864 -0.0050077494 -0.011664536 -0.00021542567 -0.0030235096 -0.0017182337 0.016887825
0.005652262 0.012944043 -8.8545705e-05 -0.00048617288 0.01117784 0.007436584 0.0076643247 0.0022480148
0.0016820905 -0.0012522801 -0.0002682495 -0.015935425 0.0009891542 0.004282338 -0.0123816915 0.0032137374
-0.008275466 0.0018975938 0.011243781 0.00046724494 0.00020564161 -0.009383738 -0.006106427 0.00621149
0.0008850423 0.01334582 -0.028256986 0.0006552255 0.0034267665 0.0005827725 0.00015102261 -8.068781e-05
-0.001558105 0.010516899 1.4673638e-05 -0.01165968 0.00059549644 0.015328812 0.012007758 -0.014610225
0.013031904 0.031875078 0.0044392245 -0.00049602706 -0.013171832 0.00084803096 -0.008604615 0.0001313222
5.9980433e-05 -0.014113884 -0.0059079346 0.0036403814 -8.124548e-05 0.006125635 0.0015272321 0.0005954862
-0.0007778709 -0.011064379 0.0031134589 0.0004168188 0.0036864849 -0.0074805683 -0.011256037 0.021346463
6.9832604e-05 0.0005387678 -0.00012484562 -0.0003186257 0.00079841784 0.030811379 0.023713663 0.0016893371
-0.0071750386 -0.0064223846 0.0010786137 0.011706988 0.0016297273 0.0015433517 0.0018705487 0.00062559766
-0.0090695005 0.00023735152 0.0007533126 0.012215161 0.004125805 0.0045512645 -0.0010268193 0.0014434747
-0.0025606826 0.008561134 0.00046756666 -0.0012388404 -0.020085482 0.0030496737 -0.059214402 -0.013106084
0.034264855 -0.0787011 -0.07196288 0.056964945 0.06046202 0.020215087 0.0025017764 -0.028218623
-0.040315945 0.01262638 -0.0014854772 -0.0022305497 -0.016757011 -0.0028276802 -0.0074674385 0.023168521
0.03918244 -0.075430594 0.0045949444 -0.02733738 0.020192398 -0.061361223 -0.020511659 0.013884711
-0.0035257153 -0.047115266 0.064098544 0.03046893 -0.0021567496 -0.04322392 -0.09345759 -0.012136635
0.011846478 0.046726387 0.023104476 -0.028915906 -0.069648005 0.066783845 -0.050984606 0.016140016
0.00509571 0.013554113 -0.060778942 -0.057484057 0.06712176 -0.1093675 0.016289823 0.016193775
-0.0017848407 0.053571425 -0.10530355 0.019947262 -0.072105415 0.06399455 -0.0692364 -0.01583139
0.008070941 0.035125215 0.022912696 0.03205487 -0.07822084 0.07328736 0.056991894 -0.023338888
-0.10841083 0.02317605 0.03517976 -0.06918226 -0.06627905 0.024593443 0.0015667413 0.0016097844
0.02136535 -0.023850273 0.0021467148 0.011706075 -0.020803317 0.003558771 0.029688863 -0.016178146
0.00032589142 0.0036215144 -0.021786252 0.010236841 0.006854401 0.010997405 0.000936472 -0.03996771
-0.005241817 -0.00021388142 0.0034344895 0.0011106196 -0.019199854 0.0021361387 -0.013332838 0.0095937215
0.00016376807 0.0047304095 -0.0008059406 0.002350117 -0.0064417482 0.005104162 0.00043239852 0.000581308
0.007611638 0.005442034 -0.01952975 0.005965978 -0.009398342 -0.01437122 0.0006252593 0.00013831633
00000000: b177 053c 898f ae3a 7b4c e139 3bd4 ee3b
00000010: 2ae2 753a ed68 ed3a 02e6 cb3b 914e e93b
00000020: e7f0 b8bb 512d 78bc 38f0 b4bb 6eb3 bd39
00000030: 4d3c 003b 4dc7 bc39 290f 823c 2f1c 5dbc
00000040: d225 aa3a f1ca 713a 8ccd d73c 98ea f23b
00000050: f63f 48ba af75 803c 7c72 8f3a 11ce 84bc
00000060: f262 4b3a fbe6 873a b2c7 9e3a 959a 1ab8
00000070: b2a7 713b 6a0c 983c 48a8 ee38 6ccd bd3b
00000080: 2465 1d3b e4cb b139 93de 233a f824 833b
00000090: 9e7e 91bc a538 9b3b 1c59 ad3c 18c1 053c
000000a0: 56eb 543b 9b12 2e39 0c18 a4bb 9c1c 3fbc
000000b0: e3e3 61b9 1326 46bb 5b36 e1ba 5658 8a3c
000000c0: 9c36 b93b 4013 543c 9db1 b9b8 05e5 feb9
000000d0: 4223 373c 97ae f33b 0425 fb3b 6e53 133b
000000e0: 9779 dc3a 8c23 a4ba d7a3 8cb9 028b 82bc
000000f0: 82a6 813a db52 8c3b 94dc 4abc 919d 523b
00000100: d295 07bc afb8 f83a d637 383c 8ef8 f439
00000110: 80a1 5739 40be 19bc 6c18 c8bb c189 cb3b
00000120: 2f02 683a 6da8 5a3c 327b e7bc 70c3 2b3a
00000130: 9a93 603b 33c5 183a d35b 1e39 f036 a9b8
00000140: 5439 ccba 124f 2c3c cc2e 7637 3e08 3fbc
00000150: 171b 1c3a b325 7b3c 30bc 443c ba5f 6fbc
00000160: c483 553c 718f 023d ea76 913b d007 02ba
00000170: abce 57bc 654e 5e3a 5ffa 0cbc 89b3 0939
00000180: 8093 7b38 ec3d 67bc 5997 c1bb 7793 6e3b
00000190: 5662 aab8 8db9 c83b 682d c83a 671a 1c3a
000001a0: 08ea 4bba 5e47 35bc 2c0b 4c3b 7988 da39
000001b0: f498 713b 8e1f f5bb 3e6b 38bc c7de ae3c
000001c0: 1873 9238 183c 0d3a fee8 02b9 380d a7b9
000001d0: ea4c 513a 2568 fc3c 2843 c23c bf6c dd3a
000001e0: 961c ebbb de72 d2bb 4560 8d3a abce 3f3c
000001f0: 939c d53a 4a4a ca3a 332d f53a 26ff 233a
00000200: 3e98 14bc 90e1 7839 f479 453a 1922 483c
00000210: c331 873b c622 953b 5796 86ba f932 bd3a
00000220: 20d1 27bb 0044 0c3c bc23 f539 9660 a2ba
00000230: 4f8a a4bc 09dd 473b cd8a 72bd e7ba 56bc
00000240: 4e59 0c3d 0b2e a1bd 4661 93bd 1354 693d
00000250: 06a7 773d 1c9a a53c d8f4 233b be2a e7bc
00000260: 5522 25bd e0de 4e3c 58b4 c2ba 6a2e 12bb
00000270: 0046 89bc 9a50 39bb 6ab1 f4bb e9cb bd3c
00000280: c47d 203d 5b7b 9abd 3091 963b a4f2 dfbc
00000290: 876a a53c e855 7bbd 1108 a8bc b37c 633c
000002a0: b00f 67bb f0fb 40bd 1946 833d fa99 f93c
000002b0: 4158 0dbb 910b 31bd b166 bfbd bdd8 46bc
000002c0: bb17 423c 2b64 3f3d 9945 bd3c 0de1 ecbc
000002d0: 9da3 8ebd f8c5 883d 3cd5 50bd 1138 843c
000002e0: eaf9 a63b 1212 5e3c 57f3 78bd 6774 6bbd
000002f0: 2277 893d 11fc dfbd 3c72 853c cfa8 843c
00000300: 51f1 e9ba b66d 5b3d 63a9 d7bd 7168 a33c
00000310: 01ac 93bd 930f 833d d0cb 8dbd d5b0 81bc
00000320: fb3b 043c 75df 0f3d 68b3 bb3c f84b 033d
00000330: 3f32 a0bd af17 963d 5570 693d 3231 bfbc
00000340: 7f06 debd b3db bd3c a718 103d 6eaf 8dbd
00000350: 50bd 87bd 3078 c93c 1d5b cd3a 67ff d23a
00000360: 6306 af3c a661 c3bc e6af 0c3b d6ca 3f3c
00000370: b86b aabc 453a 693b 0f36 f33c 0888 84bc
00000380: 68dc aa39 ee56 6d3b 1579 b2bc 6cb8 273c
00000390: e29a e03b 762e 343c 927d 753a 2eb5 23bd
000003a0: 8cc3 abbb 5b45 60b9 2c15 613b 3692 913a
000003b0: 0349 9dbc 76fe 0b3b fa71 5abc fc2e 1d3c
000003c0: 28b9 2b39 8d01 9b3b c245 53ba 6c04 1a3b
000003d0: 4d15 d3bb d040 a73b 8cb3 e239 eb62 183a
000003e0: 0c6b f93b 1753 b23b dbfc 9fbc 407e c33b
000003f0: 81fb 19bc 4475 6bbc 71e8 233a 0209 1139

bias_hh_l0 f4 [284]
0.0040662 0.0037492136 0.0033874258 0.024340717 -0.004086958 0.0051194658 0.006570653 0.0004749819
0.012934517 0.0039417488 0.0030089077 0.00035031198 0.0048096627 -0.012298504 0.0024132382 -0.008366308
0.001220905 -0.0027582704 0.04042243 -0.016775437 -1.84889e-06 0.003725781 0.0007803682 -0.004703042
-0.024656275 0.01563653 -0.0028475698 0.0036100235 0.0049690716 0.013806849 0.00015061483 0.0023353235
0.0048672906 -0.0073695597 0.0006015666 0.003764812 -0.0055880104 -0.0019260359 0.004103478 0.007827231
0.0029484164 -0.017413106 7.967186e-05 4.9599046e-05 -0.0017182342 -0.006051422 0.019904776 0.02340319
0.002699253 0.0040147193 -8.93224e-06 -0.0007148886 0.007915419 0.0026380895 0.006838213 -0.0021599655
0.0017646737 0.009570785 0.00025003406 0.0031427601 0.0009426842 0.006453757 0.005804883 0.012820053
-0.022231726 0.003346867 0.011259851 -0.0009354476 0.0005405133 -0.019936789 0.0039698165 -0.014062914
0.00087356457 -0.0011100352 0.02932342 -0.018378893 0.0023107484 0.004942504 -0.0010289897 0.013029221
-0.0015475545 0.0038194908 0.012179292 0.002770618 0.0003047373 -0.009951972 0.00025041954 0.016532615
-0.002421358 -0.022483466 0.014158136 -0.00065807614 0.0019199754 0.0008087178 -0.0076366058 0.00014183941
-0.0067484225 0.01885277 0.003813043 0.0037335032 0.010373191 9.3971714e-05 0.0014448987 0.0035559414
0.00035648583 -0.011769365 0.0031749376 -0.003932721 -0.008589731 -0.008307813 -0.0053670052 0.0021288947
5.137986e-05 -0.01382567 -0.018177541 0.017093958 0.00078744633 -0.0054302304 0.01765819 -0.0031492345
-0.009951881 -0.00477759 -0.0013721142 0.01169448 0.0019960739 0.0015431925 0.0014003423 0.0004617668
0.0002521125 0.0002719527 0.0016144719 0.00070195534 0.004121914 0.014838326 0.0042346306 -0.012130296
0.013182418 0.020816585 0.00046694223 -0.006035719 0.012025387 0.0033382117 -0.04332179 0.004560253
0.00042552408 -0.08879011 0.059654273 -0.03783358 -0.010579497 -0.0076060477 -0.015850794 -0.054347914
0.08105851 0.011141486 -0.08688027 0.059991166 -0.0593197 0.022874808 -0.017714066 0.026047062
0.053397406 -0.07017351 -0.0039726 0.08816878 -0.003926493 -0.019959701 -0.015863715 -0.035630092
0.0113472715 -0.042207923 0.020081243 0.042521413 -0.012972112 0.02107258 -0.051958844 0.021964699
0.0037784427 0.047005937 0.026371079 -0.045365073 0.028694175 -0.017930398 -0.015230447 -0.006953898
0.032040734 0.008692417 -0.053741653 0.035319734 0.04523819 -0.11423121 0.0021243957 0.008203117
0.017676895 0.061984193 -0.050106943 0.0645081 0.03940166 -0.024113784 0.04469707 -0.009286534
0.022310775 -0.023469226 -0.03230997 -0.068334736 -0.04683971 0.061736118 -0.009459728 0.02210366
0.006180186 0.012681078 -0.048646238 -0.010178198 -0.02888095 0.010356817 -0.011558803 0.020995032
0.020757806 0.0040246053 0.0016971086 0.0041749994 -0.0015941272 8.024746e-05 0.0011259835 0.002318331
0.0003328935 0.0047731036 -0.00808689 0.002725802 0.0068830047 0.0014952301 1.5033002e-06 0.004588306
0.0049383505 -0.005006226 -0.011676392 -0.01280825 -0.008167025 0.015202519 -0.00015375322 0.004513434
0.00030386265 0.002747942 0.011434758 0.0060680765 0.002649246 0.00938193 -0.018019805 -0.00086820946
0.0040224115 -0.005147345 0.012974509 -0.013173111 0.016807793 0.0030945328 -0.0061567063 -0.0029339488
00000000: c23d 853b 5eb5 753b 93ff 5d3b 2f66 c73c
00000010: e3eb 85bb 31c1 a73b a24e d73b fe06 f939
00000020: 4ceb 533c c929 813b 1831 453b 14aa b739
00000030: 609a 9d3b aa7f 49bc 6b27 1e3b d712 09bc
00000040: c606 a03a 19c4 34bb fd91 253d a46c 89bc
00000050: 6027 f8b5 3c2c 743b a091 4c3a fa1b 9abb
00000060: f5fb c9bc 2e18 803c 4b9e 3abb 2596 6c3b
00000070: 98d3 a23b 1f36 623c 5cee 1d39 3a0c 193b
00000080: cb7d 9f3b 597c f1bb 73b2 1d3a 10bb 763b
00000090: a11b b7bb 0a73 fcba 7876 863b c93d 003c
000000a0: 383a 413b eea5 8ebc 8115 a738 9208 5038
000000b0: 5f36 e1ba 024b c6bb 570f a33c 0cb8 bf3c
000000c0: f3e5 303b e88d 833b aedb 15b7 5d67 3bba
000000d0: acaf 013c cce3 2c3b 1713 e03b 358e 0dbb
000000e0: a04c e73a c8ce 1c3c 0117 8339 c4f6 4d3b
000000f0: 771e 773a 0a7a d33b e336 be3b 330b 523c
00000100: 4f1f b6bc 1c57 5b3b 3d7b 383c d338 75ba
00000110: 3cb1 0d3a 7a52 a3bc 3c15 823b 2368 66bc
00000120: edff 643a 9a7e 91ba ab37 f03c 558f 96bc
00000130: ed6f 173b bbf4 a13b 2adf 86ba 8478 553c
00000140: 50d7 caba 6c50 7a3b a78b 473c 4293 353b
00000150: 26c5 9f39 990d 23bc be4a 8339 686f 873c
00000160: a5af 1ebb 3f2f b8bc 87f7 673c be82 2cba
00000170: afa7 fb3a 2200 543a 7e3c fabb baba 1439
00000180: df21 ddbb 2071 9a3c 3fe4 793b caad 743b
00000190: 51f4 293c ae12 c538 c162 bd3a cc0a 693b
000001a0: b8e6 ba39 4bd4 40bc 9d12 503b 0ede 80bb
000001b0: f1bb 0cbc 7e1d 08bc b4dd afbb ed84 0b3b
000001c0: b480 5738 1085 62bc 11e9 94bc a108 8c3c
000001d0: a16c 4e3a 13f0 b1bb e9a7 903c 6363 4ebb
000001e0: 370d 23bc 548d 9cbb 83d8 b3ba 349a 3f3c
000001f0: 90d0 023b f344 ca3a b18b b73a 4a19 f239
00000200: f82d 8439 e094 8e39 b09c d33a 6d03 383a
00000210: 1f11 873b 731c 733c a8c2 8a3b 26be 46bc
00000220: 12fb 573c 8b87 aa3c edcf f439 48c7 c5bb
00000230: 2106 453c e6c5 5a3b 3072 31bd 2d6e 953b
00000240: e018 df39 97d7 b5bd 0a58 743d 62f7 1abd
00000250: a055 2dbc 273c f9bb 86d9 81bc eb9b 5ebd
00000260: 0102 a63d c78a 363c 48ee b1bd 4cb9 753d
00000270: 37f9 72bd f363 bb3c 171d 91bc a660 d53c
00000280: 3db7 5a3d 21b7 8fbd 962c 82bb d591 b43d
00000290: d0a9 80bb 8782 a3bc 9ff4 81bc dcf0 11bd
000002a0: e8e9 393c 37e2 2cbd 6b81 a43c ef2a 2e3d
000002b0: fb88 54bc 67a0 ac3c ccd2 54bd 50ef b33c
000002c0: c09f 773b 4c89 403d 2908 d83c bad0 39bd
000002d0: 0c10 eb3c c5e2 92bc 2089 79bc 86dd e3bb
000002e0: 253d 033d a46a 0e3c 3520 5cbd 6dab 103d
000002f0: ae4b 393d 0df2 e9bd 7239 0b3b 5e66 063c
00000300: 23cf 903c 23e3 7d3d f03c 4dbd d31c 843d
00000310: a363 213d 458a c5bc 4614 373d 8c26 18bc
00000320: 16c5 b63c 8942 c0bc 7657 04bd 15f3 8bbd
00000330: ffda 3fbd 03df 7c3d fafc 1abc bc12 b53c
00000340: 2883 ca3b 4cc4 4f3c 4741 47bd 75c2 26bc
00000350: be97 ecbc a4af 293c 2261 3dbc c6fd ab3c
00000360: 460c aa3c d6e0 833b 8471 de3a 6fce 883b
00000370: 08f2 d0ba 874a a838 bd95 933a 24ef 173b
00000380: 3688 ae39 b267 9c3b e07e 04bc 5ea3 323b
00000390: d48a e13b 99fb c33a 00c5 c935 8059 963b
000003a0: e3d1 a13b 440b a4bb 564e 3fbc b2d9 51bc
000003b0: fcce 05bc fc13 793c d138 21b9 6ee5 933b
000003c0: c14f 9f39 d116 343b da58 3b3c b7d6 c63b
000003d0: f99e 2d3b abb6 193c 459e 93bc 8d98 63ba
000003e0: 6fce 833b 0fab a8bb 0993 543c 08d4 57bc
000003f0: 7fb0 893c a5cd 4a3b 32be c9bb 7e47 40bb

weight f4 [128, 71]
0.0038165096 0.0037774364 -0.012302395 0.056137066 0.006077384 -0.006506601 -0.010589996 0.13587551
-0.042815737 0.011621273 -0.008087543 -0.0059726927 0.0102340365 -0.00066217815 0.03208799 -0.009182992
0.12593389 -0.055141117 0.13639134 -0.023639353 0.023581991 -0.028403737 -0.0068032644 0.011272239
0.10630077 -0.012890021 0.010953867 0.0015625807 0.028203472 0.025079725 -0.025080366 -0.033904873
0.009439202 0.0029998862 -0.012938179 -0.009599636 0.0033641353 -0.0119787995 -0.048044365 0.05779041
0.008560005 -0.105238006 -0.00080784067 0.061638974 -0.11945337 -0.022831852 -0.014861759 0.09719248
-0.012616745 -0.0014308048 0.08794096 0.051090974 0.017699895 -0.015413814 -0.038157716 -0.0127717005
0.017791737 0.0019382524 -0.0018775768 0.008123924 -0.0026471969 0.047765408 -0.12022717 -0.026414478
-0.046613693 -0.09859469 0.011751348 0.11401486 -0.06588388 -0.079527766 -0.01761167 -0.03872846
0.11923126 0.0420056 0.13484973 0.023990072 0.13400272 0.006903145 0.007940495 -0.020066092
-0.0141349565 -0.008072645 -0.002326516 -0.044381984 0.057027217 -0.021051552 -0.0010139805 0.003277882
-0.029777456 -0.11584291 -0.058886375 -0.10318301 -0.006933691 0.008657763 -0.05445145 -0.08702631
0.0033619602 -0.11809229 -0.03890392 -0.04367249 -0.000110255554 -0.09910691 -0.009922367 0.009942832
-0.09648452 0.04699221 -0.0060743233 0.085504554 -0.07211716 0.03465644 0.007956119 0.07604632
0.00062770117 0.02167821 -0.017224418 -0.023002766 -0.013033088 -0.013923322 0.07281852 -0.013136263
0.05753942 0.043231204 0.12488829 -0.056967653 0.085257374 -0.075097315 -0.025394384 -0.10115198
0.010406915 -0.003038053 -0.009349664 -0.06294555 0.026813027 0.040929884 0.008375184 -0.0063762995
-0.089419656 0.0147253815 -0.0094844485 -0.0021971026 -0.12874652 0.009550406 0.003609003 -0.111451484
0.05537621 0.021213401 -0.016524967 0.000992008 0.0835024 0.082816124 -0.11994563 0.09634709
-0.0070937085 -0.015291639 0.0013003222 -0.08282282 -0.083020575 0.029321913 -0.11585836 -0.10041457
-0.01843164 0.009753367 0.10174914 0.025060255 -0.074110724 -0.11527782 0.039347555 0.027207028
-0.0032946707 0.06905495 -0.049359538 -0.08755263 -0.00858886 -0.035511527 0.011848537 0.06859631
0.0025079038 -0.0031729154 0.08816585 0.008218627 0.085646175 0.025989423 -0.1165144 -0.00013889969
0.015203474 -0.0012179341 0.024177527 0.0031221877 -0.020858757 -0.033497266 -0.06979892 0.03534896
0.04459751 -0.04246873 -0.036602322 0.09188931 -0.042615034 0.015116914 0.005682311 0.12421059
0.0019641712 -0.0073318086 0.12346854 -0.004086074 0.0128492005 -0.0007973786 -0.101424806 -0.09495063
-0.008755112 -0.0655622 -0.0018051118 0.02604944 0.08878586 -0.057191774 -0.01697354 0.104156755
0.09851759 -0.020605072 0.031421583 -0.05153146 0.032358054 -0.1085414 -0.039064158 -0.0064670104
-0.02632708 0.064102225 -0.052447785 -0.094355024 0.087961935 -0.1278344 -0.074247405 -0.02806801
0.075896196 -0.070825346 -0.0059797536 0.054688904 -0.09388632 0.06613624 -0.0031849039 -0.02218573
-0.08086978 -0.008061106 0.05158804 -0.00020085997 0.011449362 0.06131468 0.0021432398 0.012474166
-0.007872604 0.009215449 0.008277009 -0.0030830177 0.0076063043 0.007334226 -0.02504045 -0.09434148
00000000: 681e 7a3b de8e 773b fc8f 49bc fbef 653d
00000010: cb24 c73b 5335 d5bb aa81 2dbc f322 0b3e
00000020: 8e5f 2fbd 2767 3e3c 9d81 04bc 94b6 c3bb
00000030: a9ac 273c 0696 2dba b26e 033d 4374 16bc
00000040: d0f4 003e a7db 61bd 2caa 0b3e 51a7 c1bc
00000050: 052f c13c f4ae e8bc ebed debb 32af 383c
00000060: 38b4 d93d ab30 53bc d977 333c 82cf cc3a
00000070: f80a e73c ff73 cd3c 5775 cdbc d6df 0abd
00000080: e2a6 1a3c bd99 443b a8fa 53bc cb47 1dbc
00000090: d378 5c3b ba42 44bc 2bca 44bd a3b5 6c3d
000000a0: 433f 0c3c 0687 d7bd 45c5 53ba 2679 7c3d
000000b0: f8a3 f4bd dd09 bbbc bc7e 73bc da0c c73d
000000c0: 77b6 4ebc d889 bbba 641a b43d c544 513d
000000d0: 5fff 903c 398a 7cbc 444b 1cbd 6540 51bc
000000e0: fabf 913c f50c fe3a 0619 f6ba 351a 053c
000000f0: 987c 2dbb a9a5 433d aa39 f6bd 2d63 d8bc
00000100: 00ee 3ebd 03ec c9bd ba88 403c 9f80 e93d
00000110: 21ee 86bd 74df a2bd 5946 90bc bca1 1ebd
00000120: 852f f43d 100e 2c3d 0c16 0a3e d486 c43c
00000130: 0238 093e c733 e23b da18 023c a561 a4bc
00000140: 4e96 67bc 2143 04bc 7678 18bb e2c9 35bd
00000150: 5f95 693d 4e74 acbc 8ae7 84ba bcd1 563b
00000160: daef f3bc 0c3f edbd d732 71bd 9d51 d3bd
00000170: 0434 e3bb 4ad9 0d3c 7c08 5fbd da3a b2bd
00000180: 5554 5c3b 5fda f1bd b859 1fbd ede1 32bd
00000190: 0039 e7b8 90f8 cabd 6c91 22bc 43e7 223c
000001a0: ad99 c5bd e77a 403d 1e0b c7bb 031d af3d
000001b0: 29b2 93bd e9f3 0d3d 625a 023c 2cbe 9b3d
000001c0: 508c 243a 8096 b13c 391a 8dbc 4c70 bcbc
000001d0: bc88 55bc a51e 64bc e021 953d 7b39 57bc
000001e0: 74ae 6b3d 3413 313d 6fc5 ff3d ea56 69bd
000001f0: 6b9b ae3d 9fcc 99bd e207 d0bc c528 cfbd
00000200: c481 2a3c 121a 47bb 552f 19bc 99e9 80bd
00000210: fea6 db3c 18a6 273d 1138 093c 47f0 d0bb
00000220: a721 b7bd ba42 713c a964 1bbc 44fd 0fbb
00000230: 21d6 03be 4e79 1c3c 0685 6c3b ad40 e4bd
00000240: 2ad2 623d bac7 ad3c 5e5f 87bc 4406 823a
00000250: 4e03 ab3d 809b a93d 0ea6 f5bd a051 c53d
00000260: 5772 e8bb c889 7abc 936f aa3a 039f a9bd
00000270: b106 aabd 8234 f03c 2647 edbd 27a6 cdbd
00000280: f3fd 96bc 96cc 1f3c da61 d03d 2a4b cd3c
00000290: 5dc7 97bd c716 ecbd e72a 213d 46e1 de3c
000002a0: 67eb 57bb ae6c 8d3d 3a2d 4abd cb4e b3bd
000002b0: 4ab8 0cbc 8974 11bd 5e20 423c 397c 8c3d
000002c0: a55b 243b b0f0 4fbb 4c90 b43d 6ca7 063c
000002d0: 4367 af3d c5e7 d43c 1a9f eebd 9aa5 11b9
000002e0: fe17 793c 16a3 9fba f30f c63c 9e9d 4c3b
000002f0: fcdf aabc 6e34 09bd bcf2 8ebd 12ca 103d
00000300: e1ab 363d b1f3 2dbd 51ec 15bd 7630 bc3d
00000310: 1a8d 2ebd efac 773c ae32 ba3b 1f62 fe3d
00000320: 53b9 003b ab3f f0bb 13dd fc3d 79e4 85bb
00000330: 7485 523c 2c07 51ba cfb7 cfbd 7a75 c2bd
00000340: 9a71 0fbc 7a45 86bd 8099 ecba a365 d53c
00000350: 5cd5 b53d ec41 6abd 180c 8bbc 2350 d53d
00000360: 97c3 c93d f8cb a8bc ebb3 003d a712 53bd
00000370: e189 043d f44a debd bd01 20bd 37e9 d3bb
00000380: e3ab d7bc 0748 833d 7dd3 56bd 353d c1bd
00000390: 6325 b43d 05e7 02be 060f 98bd e2ee e5bc
000003a0: 776f 9b3d e10c 91bd cff1 c3bb 7901 603d
000003b0: 7947 c0bd 7072 873d d2b9 50bb d9be b5bc
000003c0: 0e9f a5bd bb12 04bc fb4d 533d f09d 52b9
000003d0: 1b96 3b3c 1a25 7b3d 9975 0c3b 7260 4c3c
000003e0: 18fc 00bc 65fc 163c 4b9c 073c 740c 4abb
000003f0: 4e3e f93b f253 f03b a121 cdbc 1b36 c1bd

weight f4 [128, 71]
-0.040991385 -0.02919148 0.10756197 -0.013156318 -0.0599964 -0.046036374 0.040684056 0.09285854
0.050841365 0.017047007 0.15355611 -0.13579316 0.041924257 0.05365513 0.06318888 0.11866079
0.036798306 0.04052138 0.09063307 0.034899466 -0.13785471 -0.03813742 0.057371832 0.043113455
0.00446925 0.14388198 0.069173396 -0.016368056 -0.12957975 -0.0031527271 0.004935845 -0.078617245
-0.045848183 -0.096162304 -0.10704634 0.07043476 -0.003014559 -0.13213138 0.053479683 0.032482214
-0.0041862233 0.043517925 -0.10532611 0.097827435 0.12466399 0.02090245 0.118492454 0.04008977
-0.090879396 -0.04500087 0.037061963 -0.06416443 -0.02568755 0.14379631 -0.0073910453 -0.013982807
-0.044240322 -0.11181157 0.009954173 -0.10148916 -0.019718878 -0.09647457 -0.08701262 0.15263957
-0.036757294 0.03280099 0.07893186 0.06880216 0.011489882 0.06634893 0.102918 -0.01834218
0.15403457 -0.046479113 0.037668627 -0.08853911 -0.047266837 -0.036424868 0.08648265 -0.04902612
0.065025955 -0.13181083 -0.10282267 -0.040870264 -0.0040297993 -0.17817183 0.048315994 0.0936631
-0.105643466 -0.062133275 -0.047556676 -0.027713284 -0.013522089 -0.09784954 0.02126141 0.081181556
0.077938735 -0.089890435 -0.0009873534 -0.11461577 -0.0004428685 0.13405214 -0.029097473 -0.04888222
-0.051364794 0.11347291 0.034681693 0.011118069 -0.030241726 -0.10329644 -0.10058242 -0.084825374
-0.1318071 -0.009010935 -0.038281526 -0.024889698 0.124695644 0.046679262 0.018206151 -0.025619484
-0.13379127 -0.10850116 -0.09113112 -0.028221024 0.16544811 0.03965873 0.0017533102 0.049847823
0.13547944 0.017123783 -0.10747873 -0.12622823 0.01891981 0.019980459 0.1133601 -0.043263793
-0.009840866 0.012915158 0.046381153 0.0024191102 0.01052802 -0.048741065 5.137676e-05 -0.08253246
0.033854675 0.033867266 -0.010706455 -0.049521975 0.021390405 -0.07017225 0.17962974 0.09369385
-0.040887233 -0.1290313 -0.075069696 0.18267895 0.0032511263 0.089033954 -0.10235878 0.08605393
0.03758632 0.025971409 0.0066291797 0.07962197 0.025045492 0.06794201 -0.08896678 -0.144006
-0.09180579 -0.0031622974 0.045670018 0.012346813 -0.077875085 -0.010199848 -0.013892996 0.09663179
0.13737315 0.010949379 -0.06549183 -0.14135316 -0.07429467 0.06830767 -0.0032986111 -0.06522968
0.030931007 0.0064106165 -0.030559577 -0.050324354 0.04400506 0.08088725 -0.022720361 0.04113924
0.06377394 -0.08917606 -0.01048341 -0.030739557 -0.011674375 0.056326833 -0.012784538 0.13572983
-0.007845449 0.015398708 0.0049981805 -0.016173538 -0.09069086 0.018953713 -0.08705747 0.07195498
0.13800101 -0.12283528 -0.101554826 0.07557427 -0.08472724 -0.008729791 -0.091297105 0.008997355
0.099633895 0.11209162 0.06854535 0.013497416 0.021754043 -0.030001685 -0.11349678 -0.0037205857
0.21121846 0.11492963 0.18413378 -0.14358854 0.038680874 0.04049733 -0.00811659 0.07628014
0.098555356 0.0682061 -0.00035135722 0.101210095 -0.011338552 0.051197153 -0.06292655 -0.082396895
-0.027505454 0.07581024 0.009872969 -0.065581486 -0.04329679 -0.12380317 0.012037276 0.13674876
-0.017689556 0.061385863 -0.086649105 0.065566726 -0.07658971 -0.104668766 0.025591891 0.010703259
00000000: 95e6 27bd f822 efbc 7349 dc3d 998d 57bc
00000010: c9be 75bd a390 3cbd 53a4 263d 9e2c be3d
00000020: 093f 503d 2aa6 8b3c d03d 1d3e 5d0d 0bbe
00000030: c5b8 2b3d 7bc5 5b3d 2c69 813d 6e04 f33d
00000040: d2b9 163d bff9 253d d59d b93d bef2 0e3d
00000050: c929 0dbe fc35 1cbd bafe 6a3d bc97 303d
00000060: c972 923b cc55 133e c8aa 8d3d 4d16 86bc
00000070: 8eb0 04be fc9d 4ebb debc a13b 1402 a1bd
00000080: 4ecb 3bbd bef0 c4bd 1d3b dbbd 1940 903d
00000090: e88f 45bb 734d 07be 830d 5b3d 120c 053d
000000a0: 962c 89bb da3f 323d 37b5 d7bd c059 c83d
000000b0: d64f ff3d 9d3b ab3c 2cac f23d 2c35 243d
000000c0: fa1e babd d552 38bd 49ce 173d a468 83bd
000000d0: b26e d2bc 573f 133e 9530 f2bb 2518 65bc
000000e0: 5735 35bd 77fd e4bd d416 233c 8cd9 cfbd
000000f0: 7c89 a1bc 7694 c5bd ac33 b2bd 8c4d 1c3e
00000100: d18e 16bd 555a 063d 07a7 a13d 26e8 8c3d
00000110: 0f40 3c3c f3e1 873d acc6 d23d 5742 96bc
00000120: 3dbb 1d3e e260 3ebd 6b4a 1a3d fe53 b5bd
00000130: df9a 41bd 3e32 15bd d11d b13d 9dcf 48bd
00000140: 542c 853d 6bf9 06be b194 d2bd 9467 27bd
00000150: 680c 84bb ad72 36be fee6 453d 70d2 bf3d
00000160: 9a5b d8bd 767f 7ebd caca 42bd f806 e3bc
00000170: c18b 5dbc 5765 c8bd 692c ae3c 8442 a63d
00000180: 589e 9f3d 7a18 b8bd 156a 81ba acbb eabd
00000190: ce30 e8b9 f744 093e d35d eebc b938 48bd
000001a0: e463 52bd 7c64 e83d 640e 0e3d 9028 363c
000001b0: 7fbd f7bc 158d d3bd 28fe cdbd edb8 adbd
000001c0: 71f8 06be 9aa2 13bc 17cd 1cbd 7be5 cbbc
000001d0: 6e60 ff3d c132 3f3d 1125 953c f4df d1bc
000001e0: 9400 09be db35 debd f4a2 babd c72f e7bc
000001f0: 3b6b 293e 3171 223d 54cf e53a 3b2d 4c3d
00000200: 1fbb 0a3e 2d47 8c3c cf1d dcbd f941 01be
00000210: b8fd 9a3c 0fae a33c 5729 e83d 6035 31bd
00000220: 953b 21bc 199a 533c 2afa 3d3d ef89 1e3b
00000230: b77d 2c3c b6a4 47bd 607d 5738 c706 a9bd
00000240: 33ab 0a3d 67b8 0a3d 216a 2fbc 8ed7 4abd
00000250: ee3a af3c 78b6 8fbd dcf0 373e 90e2 bf3d
00000260: 5f79 27bd c820 04be 24be 99bd 3110 3b3e
00000270: d910 553b 6f57 b63d 7ba1 d1bd 0b3d b03d
00000280: 1df4 193d fec1 d43c 9739 d93b d810 a33d
00000290: 342c cd3c 2e25 8b3d 3734 b6bd 4f76 13be
000002a0: ad04 bcbd 8c3e 4fbb 7c10 3b3d 4a4a 4a3c
000002b0: f97c 9fbd 431d 27bc 739f 63bc e3e6 c53d
000002c0: 8cab 0c3e 0665 333c 9520 86bd e2be 10be
000002d0: ce27 98bd e4e4 8b3d 832d 58bb 2397 85bd
000002e0: 0663 fd3c 2610 d23b 1458 fabc e920 4ebd
000002f0: a63e 343d 37a8 a53d 0d20 babc 9f81 283d
00000300: e99b 823d f0a1 b6bd 9cc2 2bbc 86d1 fbbc
00000310: e145 3fbc f7b6 663d 3d76 51bc c3fc 0a3e
00000320: 338a 00bc dd4a 7c3c c7c7 a33b 5e7e 84bc
00000330: 21bc b9bd d144 9b3c 304b b2bd 225d 933d
00000340: 2350 0d3e 1091 fbbd fafb cfbd afc6 9a3d
00000350: 7a85 adbd 6607 0fbc faf9 babd a469 133c
00000360: db0c cc3d 4b90 e53d 8161 8c3d 4424 5d3c
00000370: 8935 b23c 18c6 f5bc 0071 e8bd 12d5 73bb
00000380: a749 583e 3a60 eb3d 918d 3c3e e008 13be
00000390: d66f 1e3d 87e0 253d 72fb 04bc c338 9c3d
000003a0: 64d7 c93d a4af 8b3d 5e36 b8b9 3d47 cf3d
000003b0: 56c5 39bc 1bb4 513d a3df 80bd b4bf a8bd
000003c0: 1e53 e1bc 6642 9b3d 3cc2 213c 964f 86bd
000003d0: fa57 31bd 848c fdbd ff37 453c de07 0c3e
000003e0: b0e9 90bc be6f 7b3d 1675 b1bd d947 863d
000003f0: 11db 9cbd 945c d6bd 16a6 d13c b95c 2f3c

bias f4 [128]
-0.10589192 -0.078528605 0.013176701 -0.08354226 0.088897094 0.014535933 0.06566272 -0.09932129
0.047929745 -0.038732633 0.0050854017 -0.0061328975 -0.05104454 -0.07386819 -0.14029342 -0.06441218
0.054858208 0.0018003706 -0.02591313 -0.018274771 0.15994747 0.11554548 0.06558223 0.05535792
-0.09273978 0.014934767 0.029887944 0.053059958 0.13731842 0.14664726 -0.13613209 0.05508691
0.059462488 0.03127429 0.12304035 0.0056961137 -0.12474849 0.08770327 -0.0034746435 -0.09525149
0.017706845 0.10595734 -0.061165906 -0.0903297 -0.09322373 0.12014844 0.11820334 0.023118937
0.0658721 0.05657406 -0.08272297 -0.040885 0.0024725143 0.050031934 -0.008188547 0.020481452
-0.04631347 0.078195155 -0.01428431 -0.006832388 0.044752955 -0.004573114 -0.04439314 -0.070318244
0.040680468 -0.010890955 -0.00087869476 0.13454674 -0.032876637 -0.10525287 -0.016071726 -0.058215093
-0.12623058 -0.02116991 0.0004335304 0.032155976 -0.015613762 0.08216859 0.10982424 0.07627318
-0.038853534 -0.028222784 0.06836798 0.008517917 0.08975223 0.039212164 0.021281106 -0.05879915
0.06955908 -0.01280281 -0.13556847 0.0151862325 -0.025054896 -0.030463398 0.08489541 -0.12498787
0.12167925 0.00089530164 -0.005325625 0.121725075 0.110903725 -0.030671893 0.06781712 -0.037744146
0.10630196 0.029763408 0.009110724 -0.058795057 -0.11643035 0.086743064 0.086312436 -0.052823953
-0.020634519 -0.057620805 -0.023754327 0.049917527 0.088796854 -0.094416395 0.11137671 0.050498504
0.038684703 0.050227966 0.059429463 -0.10740825 -0.015914593 -0.0485275 0.017719114 0.07580709
00000000: dddd d8bd 9bd3 a0bd 17e3 573c 3418 abbd
00000010: ae0f b63d 1f28 6e3c 2d7a 863d f668 cbbd
00000020: fb51 443d 1ca6 1ebd 71a3 a63b 79f6 c8bb
00000030: 1414 51bd 3548 97bd 14a9 0fbe 88ea 83bd
00000040: 00b3 603d 6afa eb3a c647 d4bc f9b4 95bc
00000050: 45c9 233e 1ca3 ec3d fa4f 863d fcbe 623d
00000060: 5bee bdbd f4b0 743c 90d7 f43c 6655 593d
00000070: 339d 0c3e b32a 163e 3666 0bbe d0a2 613d
00000080: f08e 733d 7819 003d 94fc fb3d 77a6 ba3b
00000090: 237c ffbd c69d b33d d8b6 63bb 3713 c3bd
000000a0: f20d 913c 2900 d93d 1a89 7abd c7fe b8bd
000000b0: 15ec bebd 6310 f63d 9814 f23d ed63 bd3c
000000c0: f4e7 863d 34ba 673d a96a a9bd 0877 27bd
000000d0: e809 223b 49ee 4c3d 4129 06bc b8c8 a73c
000000e0: 31b3 3dbd c824 a03d bd08 6abc 3ae2 dfbb
000000f0: e04e 373d 10da 95bb 95d5 35bd 0303 90bd
00000100: 90a0 263d fa6f 32bc 3558 66ba 9fc6 093e
00000110: a7a9 06bd d18e d7bd daa8 83bc f372 6ebd
00000120: 9742 01be 856c adbc 774b e339 fcb5 033d
00000130: ddd0 7fbc 0148 a83d 88eb e03d 1d35 9c3d
00000140: e224 1fbd 7833 e7bc 8304 8c3d bc8e 0b3c
00000150: 04d0 b73d ef9c 203d b755 ae3c 61d7 70bd
00000160: fe74 8e3d e1c2 51bc 76d2 0abe adcf 783c
00000170: ed3f cdbc 608e f9bc a5dd ad3d a4f9 ffbd
00000180: f832 f93d adb2 6a3a 9582 aebb ff4a f93d
00000190: 7e21 e33d 9f43 fbbc b4e3 8a3d 9b99 1abd
000001a0: d8b4 d93d 64d2 f33c 2545 153c 16d3 70bd
000001b0: 0973 eebd 59a6 b13d 93c4 b03d ee5d 58bd
000001c0: b909 a9bc cb03 6cbd 6f98 c2bc 5276 4c3d
000001d0: 20db b53d 625d c1bd 7919 e43d 85d7 4e3d
000001e0: da73 1e3d d7bb 4d3d 4f6c 733d dbf8 dbbd
000001f0: 525f 82bc c6c4 46bd ad27 913c bf40 9b3d

weight_ih_l0 f4 [512, 128]
-0.00056900684 -0.0010710515 -0.0012045001 0.003622103 0.0012508429 -0.0041170167 0.009217501 -0.0010418483
0.0031018779 0.0017100389 0.010122346 0.002376178 -0.0008335996 0.00012947814 -0.0001303654 5.32853e-05
-0.0018730587 0.001605537 0.0043424675 0.00111675 0.005251753 -0.005334271 0.0046060407 0.0031833642
-0.0006077934 0.0007765185 -0.00049762166 0.007913481 0.0008591192 0.0025681653 -0.0021589808 0.0028002006
0.00020410329 -0.0031790696 0.0021768468 0.00065495574 0.0005954745 0.0013276674 -0.00046914635 0.011778573
0.0024094265 0.0029959034 0.0017665166 0.0014127144 -0.00050402427 0.005038739 0.00054562103 0.00029627082
0.003461379 -0.0010481884 -0.0007668388 -8.760209e-05 0.004485221 0.0014726446 0.0024135574 0.010329646
0.0008960821 0.003926819 0.00012668452 0.00013280529 0.0023719745 -0.001234558 0.0010027366 -0.00067981484
0.002503576 -0.00024397037 0.0021292784 -0.0020113545 -0.0022709686 -0.0001757183 -5.5153367e-05 -0.00017480213
-0.00080306333 -0.00013870069 -0.0018571764 0.0029198374 -5.3286203e-06 0.0017677173 0.0015228109 0.0008686553
0.00091145956 -0.0045105233 0.0017427272 0.0067576496 -0.0018855113 0.014076114 -5.7377147e-05 0.0004549926
-0.0006014555 -0.0006958655 0.00027545088 -0.0022706306 -0.00027071743 0.0011241823 0.0057750414 -0.0018255236
0.008026618 0.011705597 0.011285418 0.0015631908 -0.00015449122 0.00025068683 0.00433842 0.0030264803
0.0044691423 0.0028300514 -0.0021831868 -0.0015429516 -0.0019396633 -0.0009907595 0.0013828008 -0.00014547397
0.0018234452 0.00064018037 -0.00019560328 0.002937284 -0.0007331444 -0.0006820009 0.0012692859 -0.00034656204
-1.5849353e-05 0.0010306598 0.0017600309 -0.0015366026 0.00088709063 8.0372134e-05 0.0013298478 0.0008430167
-0.000335144 -0.0047442457 -0.00014634748 -0.00020827235 0.0003292637 0.00016009345 0.004343946 0.0016514999
0.00018875283 0.00038809257 0.00024465128 0.0024982274 -4.684417e-06 -0.0005933863 -0.00026632365 -0.00017143246
-0.0025028153 0.00037049287 0.0003855632 -0.0013256826 0.0007966539 0.00028806154 0.00031165348 0.0006069692
-0.00027722458 -0.0033463633 -0.00018324581 0.00011773241 0.00012182726 0.00038750397 -0.00048512808 0.00044239472
0.00021602333 -0.00012816081 0.0020167606 -0.0003128632 -0.00023407958 0.00020290104 -0.00020212303 0.0027779648
0.00046367702 0.00071219116 0.0003622671 0.00029568118 -0.00014573835 0.00031228169 0.00020404402 -3.4953227e-05
0.0027477015 0.00036355923 0.0009915627 0.00012273113 9.157589e-05 0.00032876877 0.0030711794 -0.00036667174
-1.3158715e-05 0.0005640319 5.7280093e-05 -0.004637854 0.0004909354 0.00027053984 0.00030267288 -4.7881833e-05
-0.0012629193 -5.0933082e-05 0.0060904236 4.248983e-05 -0.00047308567 0.0022618077 -0.00010249518 -0.001972732
-0.0029758501 -6.0743565e-05 -0.00025976216 0.00043690292 1.5465826e-05 0.00042659053 0.00025343886 0.00019186792
-0.005295504 0.0033784255 0.00038076384 -6.508523e-05 -0.0025250546 -0.0003472703 -4.628206e-05 -0.000611973
0.000115520845 0.0022891648 4.6824192e-05 -0.005127575 -3.5634228e-05 0.00010043246 0.0005876033 -0.0002959723
0.00017302165 0.00018161614 -5.1786395e-05 -0.0037869608 0.00020020074 -1.5474361e-05 0.00015884914 0.0002521645
0.00066651497 0.0006415656 1.9917756e-05 -0.0061391094 -0.0026559194 0.00014648128 0.0002541867 -0.0023093775
0.0063667065 -0.0004924255 -1.87833e-05 0.0011634023 -0.0001749974 -0.00016756824 0.0002743041 0.0005992883
0.0024885538 0.00010138301 -0.0019864654 -0.00048134322 9.2534545e-05 0.0019162826 0.0047288304 0.00031381074
00000000: 6729 15ba 8662 8cba 51e0 9dba ce60 6d3b
00000010: 53f3 a33a 0ae8 86bb 0005 173c a18e 88ba
00000020: e048 4b3b 6223 e03a 32d8 253c a7b9 1b3b
00000030: ec85 5aba 86c4 0739 b2b2 08b9 a87e 5f38
00000040: 6c81 f5ba e270 d23a 424b 8e3b e95f 923a
00000050: e616 ac3b 1ccb aebb 45ee 963b fd9f 503b
00000060: 5354 1fba 468f 4b3a d372 02ba 8ca7 013c
00000070: 8336 613a aa4e 283b b07d 0dbb 9283 373b
00000080: 8f04 5639 f057 50bb 6ea9 0e3b 56b1 2b3a
00000090: 9e19 1c3a 2005 ae3a c2f7 f5b9 eafa 403c
000000a0: 78e7 1d3b eb56 443b 768a e73a d42a b93a
000000b0: 7f20 04ba 021c a53b 0208 0f3a cc54 9b39
000000c0: 4ed8 623b 5e63 89ba ae05 49ba 04b7 b7b8
000000d0: c3f8 923b c105 c13a c62c 1e3b ad3d 293c
000000e0: 0de7 6a3a 8cac 803b 9ed6 0439 a641 0b39
000000f0: 2173 1b3b e4d0 a1ba 426e 833a 9a35 32ba
00000100: 0913 243b 4cd2 7fb9 5d8b 0b3b eed0 03bb
00000110: 88d4 14bb 0641 38b9 7a54 67b8 174b 37b9
00000120: ab84 52ba 2f70 11b9 806c f3ba be5a 3f3b
00000130: 80cc b2b6 c0b2 e73a 0e99 c73a 78b6 633a
00000140: 04ef 6e3a 03cd 93bb 396c e43a 466f dd3b
00000150: 4323 f7ba 809f 663c 3ea8 70b8 138c ee39
00000160: ffaa 1dba be6a 36ba 646a 9039 dcce 14bb
00000170: 14ef 8db9 4c59 933a 8f3c bd3b 6846 efba
00000180: 1382 033c d5c8 3f3c 79e6 383c fbe3 cc3a
00000190: ecfe 21b9 9e6e 8339 4e29 8e3b ea57 463b
000001a0: e271 923b 6278 393b cc13 0fbb dd3c caba
000001b0: 4d3c feba 5fdc 81ba 183f b53a 5f8a 18b9
000001c0: ab00 ef3a c7d1 273a db1a 4db9 737f 403b
000001d0: 7d30 40ba 4ec8 32ba 2b5e a63a c5b2 b5b9
000001e0: 3af4 84b7 3417 873a d6b0 e63a d467 c9ba
000001f0: a58b 683a 768d a838 4a4e ae3a e5fd 5c3a
00000200: 44b6 afb9 9e75 9bbb da74 19b9 af63 5ab9
00000210: 07a1 ac39 c2de 2739 a957 8e3b 2477 d83a
00000220: f4eb 4539 e778 cb39 8a44 8039 4db9 233b
00000230: d62e 9db6 7b8d 1bba 5ba1 8bb9 8dc2 33b9
00000240: 4606 24bb b63e c239 6b25 ca39 87c2 adba
00000250: 8ad6 503a f706 9739 6c65 a339 031d 1f3a
00000260: 7458 91b9 a94e 5bbb ac25 40b9 1be7 f638
00000270: 837d ff38 e729 cb39 ca58 feb9 37f1 e739
00000280: 5284 6239 e862 06b9 a12b 043b ca07 a4b9
00000290: 4273 75b9 d5c1 5439 fdf0 53b9 840e 363b
000002a0: ad19 f339 57b2 3a3a abee bd39 a805 9b39
000002b0: 57d1 18b9 bdb9 a339 a6f4 5539 be9a 12b8
000002c0: c812 343b 189c be39 53f7 813a 63b1 0039
000002d0: 6e0c c038 995e ac39 d745 493b d93d c0b9
000002e0: 40c4 5cb7 8adb 133a 0840 7038 24f9 97bb
000002f0: 1eb2 003a 3ed7 8d39 11b0 9e39 bad4 48b8
00000300: 8a88 a5ba fba0 55b8 2d92 c73b 1c37 3238
00000310: 7c08 f8b9 d63a 143b aef2 d6b8 f348 01bb
00000320: 7b06 43bb e8c6 7eb8 b030 88b9 1e10 e539
00000330: 9cbc 8137 03a8 df39 fddf 8439 2730 4939
00000340: e885 adbb 9368 5d3b 42a1 c739 5e7e 88b8
00000350: 637b 25bb d511 b6b9 fc1e 42b8 d06c 20ba
00000360: c843 f238 d005 163b 1865 4438 3705 a8bb
00000370: f675 15b8 449f d238 6409 1a3a bb2c 9bb9
00000380: 256d 3539 3670 3e39 3835 59b8 a92e 78bb
00000390: faec 5139 f0ce 81b7 be90 2639 f234 8439
000003a0: 10b9 2e3a bd2e 283a 0e15 a737 952a c9bb
000003b0: ef0e 2ebb c598 1939 5d44 8539 ed58 17bb
000003c0: ce9f d03b 1e16 01ba d490 9db7 4e7d 983a
000003d0: 827f 37b9 42b5 2fb9 79d0 8f39 8f19 1d3a
000003e0: 0117 233b 979d d438 5c2f 02bb cb5c fcb9
000003f0: 1b0f c238 c62b fb3a 4ef4 9a3b f786 a439
